models/DCGAN/discriminator_DCGAN.pth (torch, 560617 bytes, 9 tensors)

net.0.weight f4 [64, 1, 4, 4]
00000000: dcda 14be bbd3 3abe c68e 0ebe 5f4c 1a3e
00000010: a2c8 e63d 8109 793e 4aca c5bd fe10 533e
00000020: a337 40be b938 b93d c3a2 133e edbb 113d
00000030: 651b 25be a011 70be d70b 973d d995 ae3b
00000040: efd9 e53d d595 9d3d b41c 0cbe 5cda 323e
00000050: 6157 683d 4cdd ffbd bd95 043d 0917 acbc
00000060: a603 693e 5887 903d f624 d33d f91b 823d
00000070: d876 8fbd b1f1 81bd b8df 803d ae87 cebd
00000080: c665 253e 58fd 133d 127f 4a3e 8dcc 3a3e
00000090: bbb1 9bbd 6aac 983d a07e 103e f85a 63be
000000a0: d825 463e ef46 283d 40d6 81bd 3d95 e4bc
000000b0: 4b9c d03c 0d7c debd 7184 3ebe 0fc4 31be
000000c0: 5901 303e 2d42 99bd 8ab4 bf3d 7b0e 9a3d
000000d0: 1213 183d 15cd 5cbd 5470 ebbd 02d7 25be
000000e0: 74c2 8b3d 1c4d 7a3e 6af0 12be 2d69 b6bd
000000f0: df74 4fbe 799e 5ebd 5217 b2bd fd26 273e
00000100: 2062 74bc 567e 84bd bed2 08be 1bcb 243e
00000110: 3f8f 673c 6b6e 78be fbcd 033e a6db d13d
00000120: 4e27 3a3d f674 223e e1fe 1ebe b99b 243e
00000130: df43 47be 81bd d43d f8b1 aa3d 42b5 51be
00000140: f2ba 10be 99fb 06be f7d1 d53d 9d7f 053d
00000150: 177d a23d 21a6 223e 17fb 1dbe e01b 913c
00000160: 9641 f13d 4801 89be 86ad dbbd 8923 eb3d
00000170: a2a7 033d cc90 f33d bb6b 86bd 394f c73d
00000180: 8929 513d e445 7a3c 931c 3c3e dfff debc
00000190: 5ab8 58ba a869 d33c e298 a43d d08b cfbd
000001a0: 5608 8ebe ab82 efbd 257a 313d 4545 72be
000001b0: 79e7 ffbd e385 213e c7a2 233c 2225 5ebe
000001c0: fe35 e33d 8c27 883d f461 893d 3e5e c03c
000001d0: a055 03be 6f5f 333e a830 6dbe 364e 8a3e
000001e0: b213 4e3e d63a 943d 7920 c3be aa94 473e
000001f0: e65d 86bd 7994 b23d 21ea 2c3e 0f24 213d
00000200: 28a3 df3b f7d7 87bd b104 2abe 1ac9 3dbe
00000210: 3e7b 9abd 2c4d 79bd 4501 06be 97bf f23d
00000220: 4f34 353e d8da 02bd d959 fabc 3511 083e
00000230: e18b 033e 413a 603e 4e62 083e d067 0c3e
00000240: 4f92 20be b1a3 2abd 3e7d 003e c3f6 6bbe
00000250: 771d 3ebd 69cd 433d 8353 55be a85b 733e
00000260: 7aea b73c 13b4 473e 3363 073e b5be 41be
00000270: 82c0 fc3d e983 dcbd 9bf7 97bd 8048 073e
00000280: 1a1a 4d3e e39a 3e3d 8c40 51be aa83 8e3d
00000290: 3d0c 32be 4315 513e 8115 07be 1d1f 9dbd
000002a0: d96f 413e a23a 7abe 5c78 683e c2a7 323d
000002b0: d8f1 373d 99cd 68be e750 89bc 7201 833e
000002c0: 401e 213e 714e 333e 7580 b03d ac9e 073e
000002d0: 8140 79be 882f debd 571b 05bd dd57 bc3c
000002e0: f1bf 0ebe 8cdf 0bbe b59a 7dbe 2a10 483e
000002f0: 2af9 db3d fd01 f0bd a2dc 7cbe 868f 313e
00000300: 4f82 af3c 1931 c2bd 23a9 48be 2350 26bd
00000310: b9e4 bd3c 59f5 10be 19f3 7d3c f6d3 1cbd
00000320: ed19 aebd 6580 0ebe 4078 833d 5fea 393e
00000330: 475a cb3c 407a efbd 9fc4 a9bd 5907 30be
00000340: b6c9 213e 672f 8abe 855e 4f3e 5ad7 4bbd
00000350: 74b0 5e3d 842d 0cbe 058f 1c3e bceb 7ebd
00000360: 043c 0f3e 170b bc3d ff70 a2be d638 e63d
00000370: 2f24 fcbd 9416 7a3d 8f48 6b3e dabf 33be
00000380: 0f9e 123d d6c0 81bd da2a 98be c25b a83d
00000390: 8f62 803d 4cc1 46bd 9d30 593e 5b4d f43c
000003a0: 5d9a ddbd 61b2 7abe 4bf2 b93d 6c7f 303b
000003b0: 9404 843e 2797 133e baeb aebd 20fa a83d
000003c0: 4d40 0c3e 1b1e d63d a274 b3bd 02f7 1b3d
000003d0: dc21 00be fc36 283e 67b4 abbd f9cb 60bd
000003e0: e77d a5bd d947 e0bd 5359 143e 002a 613e
000003f0: 0216 dbbc dbbf 143e ff96 89be a14d b3bc
-0.14536613 -0.18244831 -0.13921651 0.15068196 0.112687364 0.24320032 -0.09657724 0.20611951
-0.18771224 0.09044022 0.14417557 0.03557961 -0.16123731 -0.23444223 0.07375305 0.005327922
0.11223208 0.07694594 -0.13682824 0.1746611 0.056723956 -0.12493381 0.032369364 -0.021007078
0.22755298 0.07057065 0.10309784 0.063529916 -0.070050895 -0.06344927 0.06292671 -0.100844726
0.16152105 0.03613028 0.19775036 0.18242092 -0.07602259 0.074547604 0.14110804 -0.2220267
0.19350374 0.041083273 -0.06339693 -0.027903194 0.025465151 -0.108635046 -0.1860521 -0.17359947
0.17188014 -0.07483325 0.09360607 0.07522293 0.037127562 -0.05390652 -0.11496034 -0.161953
0.06824198 0.24443477 -0.14349523 -0.089067794 -0.20259427 -0.05435035 -0.08695854 0.16323467
-0.014915973 -0.06469409 -0.13361642 0.16093104 0.014133274 -0.24260871 0.12871544 0.10246973
0.04544764 0.1586493 -0.15526916 0.16075028 -0.19459485 0.103877075 0.08334726 -0.204793
-0.14133814 -0.13181914 0.10440438 0.032592405 0.07934015 0.15883686 -0.15427814 0.017713487
0.11780088 -0.2675879 -0.10726456 0.11481387 0.03214229 0.11892852 -0.06563517 0.097319074
0.051065 0.015275452 0.18370275 -0.027221618 -0.00082672166 0.025807217 0.080369726 -0.10134089
-0.27740735 -0.11694845 0.043329377 -0.23659237 -0.12495322 0.1577373 0.00998754 -0.21693853
0.110942826 0.06648168 0.06708136 0.023482438 -0.12825632 0.17516874 -0.23163092 0.27012795
0.201247 0.072377846 -0.38110712 0.19490305 -0.065608785 0.08719725 0.16886188 0.03934103
0.0068248697 -0.06632989 -0.16603352 -0.18533745 -0.07543038 -0.060864612 -0.13086422 0.11852949
0.17695735 -0.031946987 -0.03056042 0.13287814 0.12846328 0.21897222 0.1331875 0.13711476
-0.15680812 -0.041660015 0.12547776 -0.23043351 -0.04641482 0.047803316 -0.20832638 0.23765433
0.022450674 0.19502287 0.13221435 -0.18920405 0.123414055 -0.10767347 -0.07420274 0.1321125
0.20029488 0.04653443 -0.20434779 0.06958707 -0.17387481 0.20418267 -0.13191797 -0.0767195
0.18890323 -0.24436429 0.22702163 0.043617018 0.044908375 -0.2273468 -0.01676221 0.2558704
0.15734196 0.17510392 0.08618251 0.13244122 -0.24341013 -0.108489096 -0.032496776 0.022991115
-0.13940407 -0.13659495 -0.24766047 0.19537416 0.10740884 -0.11719129 -0.2469354 0.17339906
0.02142444 -0.09482021 -0.1959577 -0.040603768 0.023180353 -0.14156093 0.0154998535 -0.03828808
-0.08501039 -0.13916166 0.0641942 0.18155812 0.024823321 -0.11693239 -0.082894556 -0.17190303
0.15799603 -0.2698929 0.202509 -0.049765922 0.054367498 -0.13689238 0.15288933 -0.062236533
0.13987738 0.09181803 -0.31726834 0.11241309 -0.12311589 0.06105669 0.22976898 -0.17553654
0.035795268 -0.06335609 -0.29720193 0.082206264 0.062687986 -0.048524186 0.21209951 0.029822042
-0.10820458 -0.24482109 0.09079417 0.0026931418 0.25784743 0.14413129 -0.08541055 0.082508326
0.13696404 0.10454961 -0.0876248 0.038077362 -0.12512916 0.16427225 -0.083840184 -0.054882023
-0.080806546 -0.10951204 0.144872 0.21988678 -0.026743893 0.14526312 -0.26873013 -0.021887602

net.0.bias f4 [64]
00000000: 8ef2 653e 7188 233d 60fa 443e 8dc2 bd3d
00000010: 8ad1 be3d aaf5 01bd bff7 33be 8c4b e33d
00000020: d96f 633e 2bf3 4bbd fbef 593e 5169 8abe
00000030: 3113 67be eadd 373e 00c9 35be cfe3 a8bc
00000040: 9238 9f3d 0a20 88bd 996d 0f3e d7c0 403e
00000050: f898 0bbe db74 08be 3ca1 39bd f443 36be
00000060: 758c 613e 6e5c 07be f8a1 2dbe 14dd d1bd
00000070: 04e6 a43d ef1d 10be 4117 babc 24bc 21bd
00000080: 643d febd 3b8a 1b3e 7ebd 183d 4072 3fbe
00000090: 66da ca3d af17 2cbe 47b4 a13c 2691 40be
000000a0: c252 97bd 7e89 aabd 0636 6fbd 84c7 f13b
000000b0: 58e5 41be eb29 b4bd f8c6 5f3e 13de 173e
000000c0: 3adb 8fbd 02a5 c13d 06de f3bd da0a 503e
000000d0: fb0b 453d 1603 eabd e1c7 b2bd 519e 1f3c
000000e0: c899 83be b2f0 93be f46b 2abc 4ee5 bcbd
000000f0: 375d c0bd 29aa 8fbe 6ae3 e3bd 34a0 ebbd
0.22455809 0.039925043 0.19236135 0.09265623 0.0931731 -0.031728424 -0.17574976 0.11098394
0.22210635 -0.04979245 0.21282952 -0.27033475 -0.22565915 0.17955747 -0.17752457 -0.02061644
0.07774462 -0.06646736 0.14006652 0.18823563 -0.13632572 -0.13325827 -0.04531978 -0.1779936
0.22026236 -0.13218853 -0.16956317 -0.102472454 0.080516845 -0.14073919 -0.022716166 -0.039486066
-0.12414053 0.1518945 0.03729009 -0.18695927 0.099049374 -0.1680591 0.019739283 -0.1880537
-0.07388832 -0.08327006 -0.05840113 0.0073785204 -0.18935144 -0.08797058 0.21853244 0.14830808
-0.07024236 0.09455301 -0.11907582 0.2031664 0.04810713 -0.1142637 -0.0872953 0.009742335
-0.25703263 -0.28894573 -0.010401715 -0.09223424 -0.09392779 -0.2805951 -0.1112736 -0.11505166

net.2.weight f4 [128, 64, 4, 4]
00000000: 4095 a53b 174f f3bc ed23 f63b e538 533d
00000010: cf65 fabb c7c7 313a 4f38 173c 0e25 803c
00000020: e27d 09bd a378 c53c f75a bcbb 18f8 57bc
00000030: b4ed 40bd f2dc 063d 2397 e4ba 44dc 233d
00000040: e4a3 003d 6e92 883d 1b68 f03d 44c4 293d
00000050: 2943 35bb 933f 453c 6530 d83c 0888 bdbc
00000060: e00f 5ebc 0427 0bbd c6e9 d53c bd95 cabc
00000070: c44d d4bc 9659 11bc 658f cdbd be25 61bd
00000080: accd 6c3c 2ab3 6abc e861 f4bc 8f97 1f3d
00000090: 80ce 493d eab3 a9bc 2285 85bc 59a9 b83c
000000a0: 7dbc 193b 48fa 44bd b61b edbc e6ec f63a
000000b0: 0c1b c0bc 841d 23bc 9726 babc 1d51 88bd
000000c0: 4920 80bb 7ea9 1a3d b41d 1bbc 8c3e cbbc
000000d0: 9d1e d83c 4503 85bc 1544 10bd bc55 f03b
000000e0: c08d 093d 3090 5f3c 06e5 2a3d b090 51bc
000000f0: 7062 17bd a69b a23c f47a 05bd 2841 2cbd
00000100: 5973 87bc c794 543c af26 29bb a22d 563d
00000110: 747d 5d3c 6059 393c 49ce efbc 6789 013d
00000120: 81a3 39bd 50bf a2bc f0ea ebbc 1445 dc3c
00000130: 6cb5 69bd 5128 9abb 6ff7 d2bc d987 85bc
00000140: 4828 6fbd b837 81bd 606d 98bd 6ec6 e8bc
00000150: 5763 32bc 6bbf 6c3d 87d8 41bd f416 25bc
00000160: 3d2c 033d 47b9 babd 004d 9e3c 5b79 313d
00000170: 6620 973c e1b8 d53d b5f2 b23d 0184 1f3d
00000180: e3de 25bd 7bad 733c ff9e fbbc 3479 d0bc
00000190: b763 bdbc 67f0 d73c 9e97 82bd 49eb dd3c
000001a0: 1e53 bc3c c60b 0a3d 340c 173b 61df 29bd
000001b0: 0467 9f3c fe1b 0a3c 54a8 233c 4675 863d
000001c0: 4509 c33b eedb d5bc cf8e 52bc 175c 22bc
000001d0: 6ca0 d9bc 0487 8ebd efb4 47bd db7c 3fbc
000001e0: 911c 0f3d 75e7 f93b 5395 6d3c 58be 6c3d
000001f0: e409 7c3c c98c 193c 8314 e33b 3b69 a23d
00000200: efad 913b d13e 45bd 3383 bbbb b8e9 1a3c
00000210: 1222 833b 4766 113d ed4a 413c 4a08 a93c
00000220: e19b 1bbb 891a 90bc 8ff0 483c 3129 abbc
00000230: c490 19bd fadc fabc 1ffe fe3b 3323 043d
00000240: 2acb ae3c 0f99 8d3d a903 db3a 81de a83c
00000250: 7c76 1d3d 1ba1 13bc 9720 06bd ef33 afbc
00000260: 5000 6bbc 4114 c03c 1fd6 72bc 51f9 97bc
00000270: bead b4bc 1b0d 143c 354c cdbc c8b3 e7bc
00000280: ce7f 163d deff df3c 0284 303d 41d5 723d
00000290: d1b9 b43c aa7f af3c f539 a8bc 57e9 7cbd
000002a0: b97a 493d a1d4 0d3b 1c08 d4bc a61d c93c
000002b0: 4543 223c 7a3a d7bb 7807 f63b 5a19 8fbb
000002c0: ccf6 e83c db55 a7bc 82fd 8bbd 7f4e 723b
000002d0: 4572 f7bb cf62 e93c 9a7a 513d 4178 46bc
000002e0: d31e 0c3c 6427 863d a753 b73c 3cc1 4abc
000002f0: 98c4 b53c 99f8 00bd 8901 2cba c03f f13b
00000300: ee6d 403c 0f97 f73c 756f c8ba 357d 3a3d
00000310: 1a7a 9cbc a83e 50bd 9b23 723c 63c7 00bd
00000320: a236 16bd 1798 6bbd 5b7f b3bc 0002 543c
00000330: b0f1 9abc a4e2 eabc c273 f63b 902a ff3c
00000340: e1b6 8d3b b16b d03c 45f6 fabc bfc2 d8bc
00000350: d3c6 c23b 5e76 9fbc cd3a 203c e762 3c3d
00000360: f1f5 14bc 87d6 07bd f169 b6bb 685a 8fbc
00000370: 5b45 f83c 1e2d 983c e46b 313d 5537 c53c
00000380: db35 9c3c 5301 923c 5c9e ce3c 47a7 85bc
00000390: 5fb1 3fbc bc13 d5bc 8387 e73b 73f4 15bb
000003a0: 7864 79bd a19c 93bd 6cde 03bd f2fd 473d
000003b0: 4aa6 dcba ec3e d9bc 58a2 f4bc 4544 86bc
000003c0: 4494 663c f37f 483d 0f9a 593c 5807 10bd
000003d0: 024a 843a 8432 893c ed6b ebbd 6155 92bc
000003e0: 2993 ad3c 6a85 dc3c 2ce0 8b3b 80b3 293b
000003f0: f9c3 ae3d 676b f63c 491d 05bd 639d 883b
0.0050531924 -0.029700799 0.007511607 0.05156793 -0.007641531 0.00067817833 0.009229734 0.015642669
-0.033567317 0.024105376 -0.0057481485 -0.013181709 -0.04710169 0.032925554 -0.0017440062 0.040004984
0.0314063 0.06668554 0.117386065 0.04144694 -0.0027658439 0.012039083 0.026390264 -0.023136154
-0.01355359 -0.033972755 0.026112448 -0.024729604 -0.025915988 -0.008871457 -0.10037116 -0.054967634
0.014453333 -0.014324943 -0.029831842 0.038962897 0.0492692 -0.020715673 -0.016298834 0.022541689
0.0023458295 -0.04809025 -0.028943878 0.0018838912 -0.023450397 -0.009955768 -0.02272348 -0.06656096
-0.0039100987 0.037759297 -0.009467531 -0.024810098 0.026381785 -0.01623691 -0.035221178 0.007334439
0.03358245 0.013645217 0.04172232 -0.012790844 -0.03695911 0.01984961 -0.03258796 -0.042054325
-0.016534494 0.012974924 -0.002581041 0.052289613 0.01351868 0.011312813 -0.02927317 0.031625178
-0.045321945 -0.019866616 -0.02879855 0.026888408 -0.057057783 -0.004704513 -0.025752751 -0.016300129
-0.058388025 -0.06309456 -0.074427366 -0.028414931 -0.010887942 0.057799738 -0.047325637 -0.010076273
0.03202461 -0.0911737 0.019323826 0.043328624 0.018448066 0.104356535 0.08737699 0.038944248
-0.040495764 0.014872904 -0.030715464 -0.02544842 -0.023118837 0.02635975 -0.06376575 0.027089732
0.022988852 0.033702634 0.0023048045 -0.041472796 0.019458301 0.008429525 0.009988863 0.06565337
0.0059520327 -0.026105847 -0.012851431 -0.009909651 -0.026565753 -0.06959346 -0.048756536 -0.011687483
0.034939352 0.007626469 0.014500934 0.057798713 0.0153832175 0.009371945 0.0069299354 0.07930227
0.0044457833 -0.04815561 -0.0057224273 0.009455137 0.004001864 0.03549793 0.011797649 0.020633835
-0.0023744034 -0.017590778 0.012264385 -0.020893665 -0.037491575 -0.030622948 0.0077817584 0.03226013
0.02133711 0.06913959 0.0016709465 0.02061391 0.038443074 -0.0090105785 -0.032745924 -0.021387069
-0.014343336 0.023447158 -0.014821558 -0.0185515 -0.022055503 0.009036328 -0.025060752 -0.028283969
0.036742978 0.027343687 0.043094642 0.059285406 0.02206126 0.02142318 -0.020535449 -0.061745968
0.049189303 0.002164163 -0.025882773 0.02455027 0.009903734 -0.0065682502 0.0075082146 -0.004367036
0.028437994 -0.020426681 -0.06835462 0.0036973057 -0.007551464 0.028489498 0.051142313 -0.012113632
0.008552271 0.06550482 0.022378756 -0.012375172 0.02218847 -0.03148708 -0.0006561508 0.007362336
0.011744959 0.030223398 -0.0015292006 0.045529563 -0.019101191 -0.050841004 0.014778997 -0.03144015
-0.036673196 -0.05751809 -0.021911314 0.01293993 -0.018914074 -0.028672524 0.0075211236 0.031148225
0.0043247794 0.025441976 -0.030635009 -0.02646005 0.005944112 -0.019465622 0.009779644 0.045992758
-0.00909184 -0.033163574 -0.0055668284 -0.017499164 0.030306509 0.018576201 0.043315783 0.024074236
0.019068649 0.017822897 0.025221996 -0.016315116 -0.011700003 -0.026010387 0.007065715 -0.0022881299
-0.06088683 -0.07207609 -0.03219454 0.048826165 -0.0016834226 -0.026519261 -0.029862568 -0.016389975
0.014073435 0.048950147 0.013281359 -0.035163254 0.0010092857 0.01674772 -0.114951946 -0.017862977
0.021188335 0.026919086 0.0042686667 0.0025894344 0.085334726 0.03008051 -0.03249863 0.0041691526

net.2.bias f4 [128]
00000000: 3561 9739 fbe2 1f3c 8fec 623d 1c25 453d
00000010: aad9 733c 91e3 6abd ca7a 473c 216a 85bc
00000020: 096d a33c 71ca 3a3d 3ec1 0abc 759a 6b3d
00000030: cfa1 69bd 4712 1fbd 01cb 473c 3ad8 a93c
00000040: 8a6c 8b3d 65e5 63bb 713d 123d ff5a f1bb
00000050: 3fe7 5f3c 3e25 bc3c 7053 913b 0ea3 403d
00000060: bf7f 0cbc 589f c33c d8e9 14bd 4840 03bd
00000070: 4068 063d 339c d73c 08fa f43d 1c09 08bc
00000080: ef5a ec3c 9c2a 583c 002b f03c 63ff d1bc
00000090: 3736 36bb 7a18 e8bb 560c 1cbc 7fdb 053c
000000a0: b666 e53c 98c2 31ba 6d7d 1f3d 07b6 063e
000000b0: 90cf 073d 7706 11bd 2b87 8e3d 02d0 43bd
000000c0: a32f 9c3d 16e3 5e3d b503 6f3d 5b7b 84bd
000000d0: 40f5 283c 3ec5 8b3c 4011 d53b 2dc0 033d
000000e0: 843d 173c 5728 52bd 1f7a d83c 86ba 3c3d
000000f0: afd8 adbb 6924 5e3c aeb7 523c 32c6 ec3a
00000100: 509c ba3d 95e2 b4bc d2fb b2bc 9fa9 bdbc
00000110: fcde 693d 5ae6 e3bc 3ec9 b0bc ce5c ac3c
00000120: 37bb 803c 4eb6 a1b6 5318 a2bc cfbd edbb
00000130: 221f a33b 4535 253d db4f c9bc df2f ffbc
00000140: 0c59 9cbc 5676 e9bc 972d 02bd 57fe a6bb
00000150: 310a 2f3d 8fe6 d1bb 56e1 823c 5eaf 733b
00000160: a69c 5e3d 8513 9abd 359c 083d 8a54 003d
00000170: 89f3 35bd a8c4 9a3d bf0a f13b aa6b 58bd
00000180: 99b2 3d3d 5d4c 2f3d 6426 acba 5502 e83c
00000190: b6e1 e63b aea2 453a cc09 523d bea8 6f3c
000001a0: d0db f33b 5149 1f3d e001 a13a 9f10 ed3c
000001b0: a0c0 b3ba a97a d4bb c95c 643c c24f db3d
000001c0: 9d0a b13c 97b6 5dbc bc0c e4bc ca38 6a3d
000001d0: 7f1b af3c 3805 9c3d 1319 1e3d fb8c 09bd
000001e0: f3cd 353c 10a6 433c 4bc4 44bb 5515 ab3d
000001f0: cd57 863d 7f3a 8fbd 208f 1abc cc32 ad3c
0.0002887339 0.009758706 0.05540138 0.048131093 0.014883438 -0.05734593 0.012175271 -0.016285958
0.019949453 0.04560322 -0.008468924 0.05752035 -0.05703908 -0.03883579 0.012194396 0.020732988
0.068078116 -0.003477418 0.035703126 -0.007365584 0.013665973 0.022966977 0.0044349954 0.0470305
-0.008575379 0.023879692 -0.036355823 -0.032043725 0.032814264 0.026319599 0.11961752 -0.008302953
0.028851954 0.013193753 0.029317379 -0.025634473 -0.002780331 -0.007082996 -0.0095244255 0.008170008
0.028003078 -0.0006781011 0.038937975 0.13155375 0.03315693 -0.035406556 0.06959375 -0.047805794
0.076262735 0.054415785 0.058353145 -0.06468841 0.010312378 0.017061826 0.0065023005 0.032165695
0.009230975 -0.051308002 0.02642542 0.04607632 -0.0053053717 0.013558486 0.012861175 0.0018064438
0.091118455 -0.022080699 -0.021848593 -0.02315217 0.05709742 -0.027819801 -0.021580335 0.021040346
0.015714271 -4.819397e-06 -0.01978699 -0.007255293 0.0049780766 0.040334005 -0.02457421 -0.031150756
-0.01908543 -0.02849881 -0.03178176 -0.0050962376 0.04273433 -0.0064056586 0.01597659 0.0037183384
0.05434861 -0.07523254 0.033352096 0.031330623 -0.044421706 0.075570405 0.0073560174 -0.05283705
0.046312902 0.042797435 -0.0013134 0.028321424 0.00704595 0.0007539195 0.051278874 0.014627634
0.007441975 0.03888828 0.0012283884 0.02893859 -0.0013714023 -0.006484349 0.013938137 0.10708572
0.021611506 -0.013532302 -0.027838103 0.057183065 0.021375416 0.07618183 0.03859813 -0.033581715
0.011096465 0.011941448 -0.0030024226 0.08353678 0.065597154 -0.06993579 -0.009433538 0.021142386

net.3.weight f4 [128]
00000000: 6210 9d3f 62be 8a3f 763e 9a3f 0278 903f
00000010: 2cce 953f d772 9a3f 3cc4 8d3f eb0a 963f
00000020: 42bd 993f 6256 963f a1d2 963f 3042 923f
00000030: 5ecc a03f e314 8f3f 3931 8e3f d69d 913f
00000040: 54e1 933f a410 933f 2f26 8e3f 0539 8e3f
00000050: 2621 933f cc11 8b3f 5c1b 9b3f 71f6 9a3f
00000060: 8dd4 8c3f 1ee4 993f 6f2a 973f a4f7 963f
00000070: 3ea5 903f 9536 963f 9b44 953f 6bf8 8e3f
00000080: aff9 953f c726 963f 155b 923f adfa 8c3f
00000090: 3b54 903f d26d 8d3f 99e9 9c3f b498 963f
000000a0: 5c78 8b3f 2555 913f fd73 8f3f 5866 9c3f
000000b0: f47b 953f fdf4 8f3f f723 923f ef08 8e3f
000000c0: c3b2 943f 74e1 963f d42b 9b3f 2d6f 953f
000000d0: 7170 963f 795b 923f 7087 963f efc5 8b3f
000000e0: 983d 943f 8586 8e3f 200e 923f 8ce3 8e3f
000000f0: 9641 923f 4f95 903f fbdf 8c3f 547f 943f
00000100: 9f60 943f 3181 8d3f 4374 963f 90a2 8e3f
00000110: 06a1 983f 8574 903f 803d 933f 880b 8f3f
00000120: 1d21 913f 22d1 933f 2e55 903f 100e 933f
00000130: ea41 8e3f d199 8f3f 17a0 9e3f c438 913f
00000140: 69c8 933f 455c 8c3f 2bb4 9e3f 9377 8e3f
00000150: 0c7b 933f 4878 953f 8db9 8f3f 84cc 953f
00000160: 7a3a 963f 4645 903f 306b 923f cb73 913f
00000170: 96d3 973f 5b4b 943f 7f5c 983f 2669 9f3f
00000180: 529f 943f 4fcb 8d3f 7b25 a03f 5d51 8f3f
00000190: 034e 8c3f 4ae4 953f 5401 8b3f 6411 903f
000001a0: 920f 8e3f 4d5f 8b3f b644 943f 8ad8 923f
000001b0: 539c 903f 7d16 933f b618 a03f 8a86 963f
000001c0: ffa0 913f 4317 9d3f f6d0 953f 5608 8f3f
000001d0: 2556 9e3f 0081 923f 54c3 8f3f 2089 8e3f
000001e0: ea38 923f e938 903f 8189 913f d735 9e3f
000001f0: 2d08 943f 4918 913f 318b 8e3f 7159 a13f
1.2270625 1.083935 1.2050312 1.1286623 1.1703544 1.2066296 1.1075511 1.1722082
1.2010882 1.1745112 1.1783029 1.1426449 1.2562368 1.1178249 1.1108772 1.1376293
1.155314 1.1489453 1.1105403 1.1111151 1.1494491 1.0864806 1.2117724 1.2106458
1.1002365 1.2022741 1.1809825 1.1794324 1.1300428 1.1735407 1.1661562 1.1169561
1.1716822 1.1730584 1.1434046 1.1014 1.1275705 1.104914 1.2258788 1.1765351
1.0896106 1.1354109 1.1207272 1.2218733 1.1678452 1.124664 1.1417226 1.1096476
1.1617054 1.1787553 1.212275 1.1674553 1.1753064 1.1434165 1.1760082 1.091978
1.1581297 1.1134802 1.1410561 1.1163192 1.1426265 1.1295565 1.1005853 1.1601357
1.1591986 1.1055051 1.175423 1.114336 1.192414 1.1285559 1.1503143 1.1175394
1.133823 1.1548197 1.1275995 1.1488667 1.1113865 1.1218816 1.2392606 1.1345448
1.1545535 1.0965658 1.2398733 1.1130241 1.1521926 1.1677332 1.1228501 1.1703038
1.1736596 1.127114 1.1438961 1.1363462 1.1861446 1.1585497 1.1903228 1.2453964
1.1611121 1.107767 1.2511438 1.1196705 1.0961307 1.1710293 1.085978 1.1255307
1.1098502 1.0888458 1.1583469 1.1472332 1.1297706 1.1491238 1.2507541 1.1759808
1.1377257 1.2272724 1.1704395 1.1174419 1.2370039 1.1445618 1.1231484 1.1135597
1.1423619 1.1267368 1.1370088 1.2360181 1.1564995 1.1335536 1.1136228 1.260542

net.3.bias f4 [128]
00000000: fc61 ce3b fcf4 3c3b 36ca 653d 09de 173d
00000010: 5b2c d43a 3a9c aabb 4bb7 c83b 6912 afbc
00000020: 3af2 b53d 3ee0 c7bb 956e 2e3c 9855 183d
00000030: a47f 613d 4f7a 32bc aa51 e0bc 00d4 203c
00000040: 446f 5b3d 5592 5f3c a451 7abb 0c36 853a
00000050: 4ebc 933c c981 f93c 3d36 97bc 8633 8fba
00000060: 3fd1 70bc 8747 7f3d 085a 2a3d 3c2b 4b3d
00000070: 5b0a 99bc ed93 3f3d 0df8 483d b0d1 a4bc
00000080: 3321 bf3d aab6 853b 5ad6 0d3c b0b2 0e3d
00000090: f4f8 633c ef20 63bc fc65 2b3c 2e78 a6ba
000000a0: d6ab 11bc 023a 603c 1094 dfbb 634a a03c
000000b0: 260e ac3b 267d a23d 32b5 1a3d f6c0 7a3c
000000c0: 54b2 8f3c b213 843d 714d b43d f6f9 8bbb
000000d0: ce6e a0bb 097c 013d 804c f5bc 207b f43c
000000e0: 8f8e 903d 4319 c13c 9b8d 403d 8077 ac3a
000000f0: 922a 033d bafa 003a 18cb f8bc c846 ea3c
00000100: 3b45 9e3d 70a9 323c 3e42 0cbd 3bae c23c
00000110: 6f8b 383d c5d7 89bc 4b3a da3d 1196 1d3d
00000120: a487 0ebd 5c37 2ebb d7bd 443c 2857 f83b
00000130: e0c1 15bc 59a1 67bb 20ba 1dbc 1c86 123d
00000140: def1 c93b 270c 31bc 16f1 9b3d 2618 d3bb
00000150: 7314 073d 0823 8db9 9733 893c d128 103c
00000160: e4ec 11bb 9b69 053d 64f1 fb3c 32c8 123d
00000170: cdea e73c 37d6 8f3c a18d dc3c b7cd 013e
00000180: 4a76 e13c 7db1 b0bc d415 7e3d 1b5e a53c
00000190: 7884 d8bc fe91 b1bb c124 e4bc 4be2 f93c
000001a0: 2c91 ac3c 407c d1ba 2a00 bc3c c3da 2f3d
000001b0: b169 c93c b91c 9e3a e48a 7cbc f0ab e43c
000001c0: 3f51 cc3a e4c8 f73d 21df 8d3c 9f71 0fbd
000001d0: 1986 e43c 079c ff3c 6b6f a93c 9791 03bd
000001e0: 8865 cf3c 1fc1 b6bc 8b23 4aba 6576 1a39
000001f0: 32c2 3d3d 7054 46bc 337d ab3b 3265 32bc
0.0062983017 0.0028832546 0.056101047 0.037076984 0.0016187535 -0.005206612 0.006125366 -0.021371083
0.08884092 -0.00609973 0.010646482 0.037191004 0.05505337 -0.010893418 -0.02738269 0.00981617
0.053572908 0.013645728 -0.0038195634 0.0010163202 0.018034127 0.030457394 -0.01845848 -0.0010925389
-0.014698326 0.062324073 0.041589767 0.04960178 -0.018681696 0.046771932 0.049064685 -0.020119518
0.09332504 0.004080613 0.008657062 0.03483838 0.0139143355 -0.013862832 0.010461327 -0.0012700611
-0.008891067 0.013685705 -0.0068230703 0.01956672 0.00525071 0.079340264 0.037770458 0.015304795
0.017541088 0.06449069 0.08803833 -0.004271741 -0.0048960214 0.03161243 -0.029943705 0.029843867
0.07058441 0.023571616 0.047010045 0.0013158172 0.03202302 0.00049201737 -0.03037028 0.028598204
0.077280484 0.010904655 -0.03424286 0.02376472 0.04505485 -0.01682652 0.1065565 0.038473193
-0.034797326 -0.002658329 0.012008152 0.007578749 -0.009140462 -0.0035343973 -0.009626895 0.035772428
0.006162866 -0.01080612 0.07614343 -0.0064420877 0.032978486 -0.00026919716 0.016748233 0.008798794
-0.0022266442 0.032571416 0.030754752 0.035835452 0.028310204 0.0175582 0.026923003 0.1267613
0.027522225 -0.021569008 0.062032536 0.020186475 -0.026430354 -0.005419015 -0.027849557 0.030503413
0.021065317 -0.0015982464 0.022949297 0.042933237 0.02458653 0.0012063003 -0.0154139735 0.027914017
0.0015588178 0.12098864 0.01731831 -0.035020467 0.027895974 0.03120233 0.020683011 -0.032121267
0.025316969 -0.022308884 -0.0007710985 0.0001473069 0.046327777 -0.012105092 0.005233431 -0.010888385

net.3.running_mean f4 [128]
00000000: 1c56 dcbe 91b0 803e 2841 5ebf 94d1 ddbe
00000010: 874a 72be 770b 9f3d 899d a6be 0ba7 a93e
00000020: 85cf 10bf 8043 44be 02b4 e23c da23 2cbc
00000030: f334 debc cc68 813e 8b9b 76bf 47d9 babe
00000040: 7bcf 70bf b1a8 2cbe 90b7 47bd 203b 093e
00000050: de7a d9bd dc9f a1be b495 edbe bc57 aabb
00000060: aee7 dc3e 3ed9 0ebf 36c8 273e 5e05 8abf
00000070: 9da3 48bf 26d3 f5be bc6c 20bf 7023 07bd
00000080: 9ada 55be c494 1cbd fcde f6bd 3980 12bf
00000090: 3534 41bd 6499 2bbf 0cb2 c9be b328 dabe
000000a0: 6530 fa3e 2f78 97be aa5f 7bbe 4bcc 83be
000000b0: 713e 983d 5daf 4ebd f4e1 8abc 8056 d63d
000000c0: 9fe3 14bf 5247 d6be 497f 39bf 078a 773f
000000d0: 5cab b3be d050 8dbc 93e5 df3d 5555 85be
000000e0: 5a6c b8be 637d 173f 75f3 19bf 2aa1 8cbe
000000f0: f182 45bf d287 a53e 798f 853e 745a 3cbf
00000100: 3d3b 14bf 6d21 013d 9e98 063e 0f1b 28be
00000110: f61e dbbe 2d1e 82be 1818 f1bc 623a 87bd
00000120: c22e d5be 2500 eb3e 66c8 383e 9722 cb3b
00000130: d189 81be 0306 35be df79 9e3e 0bd3 ccbb
00000140: feb8 57be 06c7 613c d6e9 94bc 01ae fdbe
00000150: 34c0 a4be 949b cc3c 5a00 c3be 7d2a 62bd
00000160: 2838 52be 628f 093f 110e 60be 3353 22bf
00000170: 7931 bbbe 95a0 3dbf 71c6 323e e8e4 833e
00000180: d537 bebe c874 4dbe 65b1 26be 659b bcbe
00000190: 8309 243e b844 d7be ca5a 90bf dd94 38bf
000001a0: 6173 96be 589d b5be ab12 68bd 6eb4 4ebe
000001b0: 2f79 f1be 3161 183f be38 033c 6059 62bf
000001c0: 8cac 2ebe 1361 233f 1189 ae3d ee38 b2be
000001d0: 59b8 b2bd 56fa 7dbe 1ddd a33e 5eea eebe
000001e0: 657c 91be d220 c23e 66a6 1fbf 3536 bfbe
000001f0: 424f 50be 3f77 ef3d 2e40 da3d 52bb 923e
-0.43034446 0.2513471 -0.8681817 -0.43323958 -0.23661242 0.077658586 -0.32542065 0.33135256
-0.5656665 -0.19166374 0.027673725 -0.010506595 -0.027124858 0.25275266 -0.9633109 -0.36493894
-0.9406659 -0.16861226 -0.048759043 0.1340146 -0.10619138 -0.31567276 -0.46403277 -0.005198447
0.43145508 -0.55800235 0.16384968 -1.0782888 -0.78374654 -0.48012656 -0.62665915 -0.03299278
-0.20884171 -0.03822781 -0.1205425 -0.572269 -0.04716893 -0.6703093 -0.3939365 -0.42609176
0.48865047 -0.2958388 -0.24548212 -0.257418 0.07433785 -0.05046021 -0.016953446 0.10465717
-0.5815982 -0.41851288 -0.72459847 0.9669499 -0.35091674 -0.017250448 0.1093246 -0.26041666
-0.36020166 0.591757 -0.6013711 -0.27466708 -0.77152926 0.32330185 0.26086023 -0.7357552
-0.5790289 0.031526018 0.13144156 -0.16416572 -0.4279706 -0.25413647 -0.029430434 -0.066029325
-0.41637236 0.45898548 0.18045196 0.006199192 -0.25300458 -0.17678075 0.30952355 -0.006250744
-0.21066663 0.013780361 -0.018177908 -0.49546817 -0.3217789 0.02497653 -0.38086206 -0.0552163
-0.20529234 0.5373441 -0.21880366 -0.634082 -0.36561182 -0.74073154 0.17458512 0.2576058
-0.3715197 -0.2006408 -0.16278608 -0.36837307 0.16019253 -0.42044616 -1.1277707 -0.7210215
-0.29384902 -0.35471606 -0.05665843 -0.20186016 -0.47162768 0.595233 0.008009134 -0.88417625
-0.17058009 0.6382 0.08522237 -0.3480906 -0.08726568 -0.24802527 0.32004634 -0.46663183
-0.28415218 0.37915665 -0.6236328 -0.37346044 -0.20342734 0.11692666 0.106567726 0.2865854

net.3.running_var f4 [128]
00000000: 9555 383d 0117 863d c0f1 703c 9d4a 463d
00000010: ce37 273d 3278 c43c 384f 9d3d 6f6c a83d
00000020: 187c b53c 0e02 933c 8a1d 8f3d 71ed c23c
00000030: 87d3 243d 846f 9d3d 5a4b 193f 02b8 fc3c
00000040: 7ad8 643d 2704 883d df2a 633d 74ed 0a3e
00000050: e445 f23c 9d65 823d c1bb 0c3d 571b 4f3c
00000060: b680 9e3d 7ab1 673c 40e4 ab3c d1be fb3c
00000070: 8f64 143f 0042 823c d2ff 053d 1c43 433d
00000080: 1cf1 f73c 12c5 1a3d 70e3 5e3d c288 923d
00000090: 839c 393d 8f7b d03e 7db6 a43d d4c7 863c
000000a0: 5e8f 543d a9d3 013d 18e3 643d 8018 6e3c
000000b0: 5f1e ae3c cc71 593d 164e 153d 0f79 473d
000000c0: e847 d13c 0fc8 d43c 4619 d83c 22dd 263d
000000d0: 7cba 0b3d 5946 963d efaa a53d e6d3 813d
000000e0: b928 093d 3006 a53c 01fc b13c c500 1f3d
000000f0: f301 5d3d 6f77 b03d 5dfc 243e cf4d fe3c
00000100: df28 f63c 3ef9 8a3d d125 973d d3d0 5d3d
00000110: 133f 9e3c e490 203e c5c1 0d3d ba2f bf3c
00000120: 75fc 9b3e 5fec e73c a0af 253d cdc2 e83d
00000130: 2094 ba3d 58cc b53c 0918 fb3c 588a 5d3d
00000140: 664a 0c3d 2941 393d 96cc 453d 576c 2d3d
00000150: 4786 2e3d f087 cb3c 3104 2c3d 150a dd3c
00000160: 2385 933d 5392 9e3c 58f2 5e3d 466e 803c
00000170: 717d 1b3d 5e43 863c 4a32 843d 1289 633d
00000180: 7971 c03c ae8b a63e 205a c73c f043 4d3e
00000190: 8bd2 d83d 705c 7f3d 8cbb 913f 95a8 e03c
000001a0: b04d 533d fc82 393e cf45 973d 8b9e 1c3d
000001b0: 3da7 fe3c b03b 063d 6263 963d 6795 3b3c
000001c0: 9dc6 b63c 4653 273f b174 a03c a271 173e
000001d0: 5d73 803d e88c c63c 0eb4 bd3d d6ec 843e
000001e0: baea f33c 1650 773d 7123 c43c c003 cd3c
000001f0: f184 c93c 0634 9b3c 0d58 243d fb22 5a3d
0.045003492 0.065473564 0.014706075 0.048411 0.040824704 0.023983095 0.076811254 0.08223807
0.0221539 0.017945316 0.06988056 0.023794862 0.04024079 0.076872855 0.598806 0.03084946
0.05587051 0.06641417 0.055460807 0.13567144 0.029574342 0.063670374 0.034358744 0.012640796
0.077393934 0.014141435 0.020982862 0.030730637 0.5796594 0.015900612 0.032714672 0.047671422
0.030266337 0.037785597 0.05441612 0.07154991 0.045315277 0.40719268 0.080426194 0.016452707
0.051894538 0.031695995 0.055880636 0.014532208 0.021254716 0.05308704 0.03645142 0.048699435
0.025546983 0.025974302 0.026379239 0.040738232 0.034113392 0.073376365 0.080892436 0.063392445
0.0334861 0.020144552 0.02172661 0.038819093 0.053956937 0.0861653 0.16111894 0.031042961
0.030048786 0.067858204 0.0738026 0.05415423 0.019317186 0.15680271 0.03460862 0.023338187
0.30466047 0.028310953 0.040450692 0.1136528 0.09110284 0.022192165 0.03065111 0.054087013
0.03425064 0.045228157 0.04829081 0.04233965 0.042608526 0.024845093 0.041996185 0.026982347
0.07203128 0.019356882 0.054430336 0.015677582 0.037961427 0.016389545 0.064549044 0.055550642
0.023491608 0.32528442 0.024334967 0.20045447 0.10587033 0.062344015 1.138536 0.027424136
0.05158776 0.18116373 0.07386362 0.038237136 0.031085605 0.032771766 0.073431745 0.0114491945
0.022311503 0.6536144 0.019586893 0.14789441 0.06272004 0.024237111 0.09262858 0.2596194
0.029775012 0.06037911 0.023942681 0.025026202 0.024599524 0.018945705 0.040123034 0.053256016

net.5.weight f4 [1, 128, 7, 7]
00000000: 6dbd b0bc f1f5 05bc 7962 1b3d 9d0b eb3c
00000010: 398f ba3d a2f3 d8bc ed5a 8dbc bfa0 acba
00000020: a1d1 0d3d aa53 41bd 83e2 c2bd 39d4 65bc
00000030: 061a cc3d b2d3 d13b 5726 b33c 020b 37bc
00000040: 8307 913d fc45 173b 0e67 3f3e 7eb9 6c3d
00000050: f8fd 013d 2df6 b5bc 2ee9 503d 00ff 8a3d
00000060: cc7b 4eba ee5d dc3b 3dcc 743d 6638 043d
00000070: 5e7c 283d 64aa f83d 7806 79bd 4967 9abc
00000080: 32cd ad3c 936d d93d 9da8 173d beb3 11bd
00000090: d030 7e3d 096e 5ebd 02de f2bd 421c 5fbb
000000a0: 227a db3c 18fe b73c f50a d0bc 1a1b 193c
000000b0: 894b c23d a695 233e d9bb 943d 5478 4dbd
000000c0: f8dd a93c 73ed 03bd e8a4 c8bc 6720 e43b
000000d0: 4214 313e fcd1 283d 2401 2ebd b7c6 1dbd
000000e0: 89da 8bbd 58f4 163d 6bf0 d43d ae19 bfbd
000000f0: 1541 1b3c 4077 ff3c 957a 71bc 90cc 60bd
00000100: 7740 ef3c 11e0 393c 5f96 d9bc be54 d1bc
00000110: d85d a13b a6e9 ea3c 03b8 87bd 66f5 ffbc
00000120: d5cc 3bbd 16b2 863c c490 00bd 9dec 91bc
00000130: c663 c93b 7364 7ebd 2ce3 2d3d ccd5 5bbe
00000140: 43b5 a8bc dee1 32bd 2757 aebc 1fc9 773d
00000150: 4b76 8ebd bf3d 3c3c e0d2 13bd 071b 14bd
00000160: 076f 33bd 6acd d9bc 4dd5 11bb f03d 6abb
00000170: 79b2 3f3c e50a 7d3d b352 dbbc 9e53 123d
00000180: ee66 433c e730 863a ae3d 033e 1551 c3bd
00000190: b4b9 c0bd 147f f4bd e8f7 14be d5a7 7cbd
000001a0: f1f0 8abe 7eaf 0f3e 6f89 253e a1a1 4bbd
000001b0: 191f 8fb9 b1c5 6b3c e580 353d fa67 e9bd
000001c0: d07a 0b3e a0f1 ca3d 224e 17bc d8d6 c2bc
000001d0: 5f19 1c3c eace 9d3d ab24 d5bd d558 0c3e
000001e0: 4220 cd3d 910b 85bb 7a82 a8bd ddff 82bd
000001f0: e8a1 c53d 1806 04be 7a94 0e3e e032 e73d
00000200: e8f9 233d df84 4abd 3691 55bd 662f 9e3d
00000210: db6f d0bd ac2f 0d3e b6b8 133e a584 22bd
00000220: ca4d d1bd c757 bd3c 31a3 1d3e 64f6 ebbd
00000230: 1f17 f53d 178d c73d ea48 bc3d ea17 9b3c
00000240: 15c9 b03d ab4c b83d bdbb 7d3d 95a7 02be
00000250: 0210 4abd d625 cdbc ac5d 2cbc 6bc2 0c3b
00000260: ae8f 87bd d08e cbbd 0f75 173d 8c54 c7bc
00000270: 0c0a 7f3c 42ec c93d f62f a53d 7259 d2bc
00000280: cf69 80bd 88ea a63c 9b6f e7bc e3d1 a63d
00000290: cd9f 7d3d a59d 7f3b 6926 9ebc c6fb 56bd
000002a0: 8cf3 833d cc27 63bd cf37 073d 8d0f 1cbd
000002b0: 9891 323e 150e 0b3d 5b4a 6dbd 695d 853d
000002c0: 0fae 55bd b3f2 3c3e cfc5 c63c 7881 6b3d
000002d0: 9f81 78bd bcf1 85bd c2be 1d3d 3528 d7bc
000002e0: c56f 803c 4f76 5139 0ef9 20bc 4379 ccbc
000002f0: c725 b8bd 1ac4 6f3d 3df3 3c3d a204 f83d
00000300: e1df ff3d 87a5 813c 351e 853d 4236 993c
00000310: 08e6 babd 55cf 6cbd b781 acbd 69f8 52bd
00000320: be0d 91bc 302e 8bbd c39b b8bd 4a2b 86bd
00000330: 1f5b d93c 1639 95bc fa0a c93c 6528 e8bb
00000340: d242 c03d 0e4e f93c d914 8ebd 7545 253c
00000350: 00b9 56bc 49a3 b4bc 982f d7bd de13 f13d
00000360: a01b 943d 536f c7bd 0984 1cbb 13ce 093d
00000370: fd7d 883c 2a26 59bc 40c9 aa3d 1dde af3d
00000380: 3721 aabd d7fb debc a13a 313d 8c56 733c
00000390: 4619 403e a77b 113e 3d04 a23d 23da a7bd
000003a0: 5942 91bd f869 82bd a808 06bd 47d1 8abd
000003b0: ca11 13bc b262 143c 287f d0bd d69a fbbd
000003c0: 99cf dcbd 53a3 dcbd 5a3d a4bd 5a47 dbbd
000003d0: 299e 34bd f7b4 ae3d 6a6a af3b 3266 4c3d
000003e0: 1b5a 083c b4a9 783d d800 27bd 96cb f63c
000003f0: 3012 d03d a5b0 c33c 1ce9 463d ba55 13bd
-0.0215747 -0.008176313 0.037935708 0.028692061 0.09109349 -0.02648336 -0.01725527 -0.0013170465
0.034623746 -0.04719893 -0.0951586 -0.014027649 0.09965901 0.00640341 0.021868868 -0.011172058
0.07081511 0.0023082485 0.18691656 0.057794087 0.031736344 -0.022212112 0.051003627 0.06786919
-0.00078767235 0.0067250645 0.05976509 0.03228035 0.04113423 0.121418744 -0.060797185 -0.018848078
0.021216009 0.10616603 0.037026037 -0.035571806 0.06205827 -0.054304156 -0.11858751 -0.0034043943
0.026791636 0.022460029 -0.02539585 0.00934484 0.094870634 0.15975055 0.072623916 -0.050163582
0.020735726 -0.03220887 -0.024492696 0.0069618705 0.17292884 0.04121588 -0.042481557 -0.038519587
-0.06828792 0.036854118 0.103974186 -0.0933107 0.009475966 0.031184793 -0.0147386985 -0.054882586
0.029205544 0.0113449255 -0.02656096 -0.025553104 0.004924517 0.028675865 -0.06626894 -0.031244945
-0.04584964 0.01644234 -0.03138806 -0.017813021 0.006145927 -0.062107515 0.042452976 -0.21468276
-0.020594245 -0.043672435 -0.021281792 0.06049454 -0.06956156 0.011489331 -0.036089778 -0.036158588
-0.043807056 -0.026587207 -0.0022252381 -0.0035742484 0.011700266 0.061777968 -0.026772832 0.035724275
0.011926396 0.0010237963 0.12816498 -0.095369495 -0.0941042 -0.11938301 -0.14547694 -0.061683495
-0.2713695 0.14031789 0.16165708 -0.04971469 -0.00027298255 0.014390395 0.044312377 -0.11396785
0.13621068 0.099093676 -0.009234937 -0.023784086 0.009527533 0.07705481 -0.104073845 0.13705762
0.10015918 -0.0040602167 -0.082280114 -0.06396458 0.09650022 -0.1289295 0.13923827 0.112890005
0.04003325 -0.049443122 -0.052140437 0.07723884 -0.10177585 0.13787717 0.1442593 -0.03967728
-0.10219915 0.023113145 0.15394284 -0.11521605 0.119673006 0.097437076 0.09193595 0.018932302
0.08632103 0.08998998 0.06194662 -0.1275924 -0.049331672 -0.025042456 -0.01052038 0.0021478187
-0.066192016 -0.09939349 0.03697687 -0.024332307 0.01556636 0.09859516 0.080657884 -0.025677416
-0.062701814 0.020375505 -0.02825146 0.081455015 0.061919976 0.0039003876 -0.019305425 -0.052486204
0.06442937 -0.055457875 0.033012208 -0.038100768 0.17438352 0.033948977 -0.05793224 0.06511957
-0.05216795 0.18451957 0.024264244 0.057496518 -0.06067049 -0.06540248 0.038512 -0.02626429
0.015678296 0.00019975867 -0.009825004 -0.024960166 -0.089915805 0.058536626 0.046130408 0.12110259
0.124938734 0.015826 0.06499902 0.01870263 -0.09125906 -0.057814915 -0.08423179 -0.051506434
-0.017706748 -0.06795919 -0.09014084 -0.065512255 0.026532708 -0.018215697 0.024541367 -0.0070848935
0.09387745 0.030432727 -0.0693757 0.010087361 -0.013105631 -0.022050517 -0.10507125 0.117713675
0.072318316 -0.0973803 -0.002388241 0.033643793 0.016661638 -0.013253728 0.08339167 0.085872866
-0.083071165 -0.027219696 0.043268804 0.014852177 0.18759641 0.14207326 0.07910965 -0.08195903
-0.07092733 -0.06367868 -0.0327231 -0.06778198 -0.008976409 0.009056734 -0.10180503 -0.12285392
-0.107817836 -0.10773339 -0.080195144 -0.107069686 -0.044096146 0.0853061 0.0053532617 0.04990215
0.008322264 0.060708717 -0.04077229 0.030126374 0.10159719 0.023887942 0.048562154 -0.035970427
